…
},"id":"XsrUg894PwvD","executionInfo":{"status":"ok","timestamp":1717876624456,"user_tz":0,"elapsed":2227,"user":{"displayName":"yatoute mintoama","userId":"12761633442990350805"}},"outputId":"766817ab-2753-4817-9e5c-9c890d64c1b7"},"id":"XsrUg894PwvD","execution_count":null,"outputs":[{"output_type":"stream","name":"stdout","text":["Model: \"sequential\"\n","_________________________________________________________________\n"," Layer (type)                Output Shape              Param #   \n","=================================================================\n"," conv2d (Conv2D)             (None, 222, 222, 112)     3136      \n","                                                                 \n"," max_pooling2d (MaxPooling2  (None, 111, 111, 112)     0         \n"," D)                                                              \n","                                                                 \n"," conv2d_1 (Conv2D)           (None, 109, 109, 64)      64576     \n","                                                                 \n"," max_pooling2d_1 (MaxPoolin  (None, 54, 54, 64)        0         \n"," g2D)                                                            \n","                                                                 \n"," conv2d_2 (Conv2D)           (None, 52, 52, 192)       110784    \n","                                                                 \n"," max_pooling2d_2 (MaxPoolin  (None, 26, 26, 192)       0         \n"," g2D)                                                            \n","                                                                 \n"," conv2d_3 (Conv2D)           (None, 24, 24, 320)       553280    \n","                                                                 \n"," max_pooling2d_3 (MaxPoolin  (None, 12, 12, 320)       0         \n"," g2D)                                                            \n","                                                                 \n"," flatten (Flatten)           (None, 46080)             0         \n","                                                                 \n"," dense (Dense)               (None, 256)               11796736  \n","                                                                 \n"," dense_1 (Dense)             (None, 2)                 514       \n","                                                                 \n","=================================================================\n","Total params: 12529026 (47.79 MB)\n","Trainable params: 12529026 (47.79 MB)\n","Non-trainable params: 0 (0.00 Byte)\n","_________________________________________________________________\n"]}]},{"cell_type":"code","source":["## Prédiction sur l'écha
…
